{"backend": "tensorflow", "config": {"name": "resnet", "layers": [{"name": "input_1", "config": {"name": "input_1", "dtype": "float32", "batch_input_shape": [null, 64, 64, 3], "sparse": false}, "class_name": "InputLayer", "inbound_nodes": []}, {"name": "batch_normalization_1", "config": {"scale": true, "moving_mean_initializer": {"config": {}, "class_name": "Zeros"}, "center": true, "name": "batch_normalization_1", "gamma_regularizer": null, "beta_constraint": null, "beta_regularizer": null, "moving_variance_initializer": {"config": {}, "class_name": "Ones"}, "trainable": true, "gamma_initializer": {"config": {}, "class_name": "Ones"}, "momentum": 0.9, "gamma_constraint": null, "axis": -1, "beta_initializer": {"config": {}, "class_name": "Zeros"}, "epsilon": 2e-05}, "class_name": "BatchNormalization", "inbound_nodes": [[["input_1", 0, 0, {}]]]}, {"name": "conv2d_1", "config": {"data_format": "channels_last", "dilation_rate": [1, 1], "name": "conv2d_1", "bias_constraint": null, "filters": 64, "padding": "same", "activation": "linear", "strides": [1, 1], "kernel_constraint": null, "bias_initializer": {"config": {}, "class_name": "Zeros"}, "trainable": true, "activity_regularizer": null, "kernel_regularizer": {"config": {"l1": 0.0, "l2": 0.0005000000237487257}, "class_name": "L1L2"}, "kernel_initializer": {"config": {"scale": 1.0, "seed": null, "distribution": "uniform", "mode": "fan_avg"}, "class_name": "VarianceScaling"}, "kernel_size": [5, 5], "use_bias": false, "bias_regularizer": null}, "class_name": "Conv2D", "inbound_nodes": [[["batch_normalization_1", 0, 0, {}]]]}, {"name": "batch_normalization_2", "config": {"scale": true, "moving_mean_initializer": {"config": {}, "class_name": "Zeros"}, "center": true, "name": "batch_normalization_2", "gamma_regularizer": null, "beta_constraint": null, "beta_regularizer": null, "moving_variance_initializer": {"config": {}, "class_name": "Ones"}, "trainable": true, "gamma_initializer": {"config": {}, "class_name": "Ones"}, "momentum": 0.9, "gamma_constraint": null, "axis": -1, "beta_initializer": {"config": {}, "class_name": "Zeros"}, "epsilon": 2e-05}, "class_name": "BatchNormalization", "inbound_nodes": [[["conv2d_1", 0, 0, {}]]]}, {"name": "activation_1", "config": {"name": "activation_1", "activation": "relu", "trainable": true}, "class_name": "Activation", "inbound_nodes": [[["batch_normalization_2", 0, 0, {}]]]}, {"name": "zero_padding2d_1", "config": {"name": "zero_padding2d_1", "data_format": "channels_last", "padding": [[1, 1], [1, 1]], "trainable": true}, "class_name": "ZeroPadding2D", "inbound_nodes": [[["activation_1", 0, 0, {}]]]}, {"name": "max_pooling2d_1", "config": {"strides": [2, 2], "data_format": "channels_last", "pool_size": [3, 3], "name": "max_pooling2d_1", "trainable": true, "padding": "valid"}, "class_name": "MaxPooling2D", "inbound_nodes": [[["zero_padding2d_1", 0, 0, {}]]]}, {"name": "batch_normalization_3", "config": {"scale": true, "moving_mean_initializer": {"config": {}, "class_name": "Zeros"}, "center": true, "name": "batch_normalization_3", "gamma_regularizer": null, "beta_constraint": null, "beta_regularizer": null, "moving_variance_initializer": {"config": {}, "class_name": "Ones"}, "trainable": true, "gamma_initializer": {"config": {}, "class_name": "Ones"}, "momentum": 0.9, "gamma_constraint": null, "axis": -1, "beta_initializer": {"config": {}, "class_name": "Zeros"}, "epsilon": 2e-05}, "class_name": "BatchNormalization", "inbound_nodes": [[["max_pooling2d_1", 0, 0, {}]]]}, {"name": "activation_2", "config": {"name": "activation_2", "activation": "relu", "trainable": true}, "class_name": "Activation", "inbound_nodes": [[["batch_normalization_3", 0, 0, {}]]]}, {"name": "conv2d_2", "config": {"data_format": "channels_last", "dilation_rate": [1, 1], "name": "conv2d_2", "bias_constraint": null, "filters": 32, "padding": "valid", "activation": "linear", "strides": [1, 1], "kernel_constraint": null, "bias_initializer": {"config": {}, "class_name": "Zeros"}, "trainable": true, "activity_regularizer": null, "kernel_regularizer": {"config": {"l1": 0.0, "l2": 9.999999747378752e-05}, "class_name": "L1L2"}, "kernel_initializer": {"config": {"scale": 1.0, "seed": null, "distribution": "uniform", "mode": "fan_avg"}, "class_name": "VarianceScaling"}, "kernel_size": [1, 1], "use_bias": false, "bias_regularizer": null}, "class_name": "Conv2D", "inbound_nodes": [[["activation_2", 0, 0, {}]]]}, {"name": "batch_normalization_4", "config": {"scale": true, "moving_mean_initializer": {"config": {}, "class_name": "Zeros"}, "center": true, "name": "batch_normalization_4", "gamma_regularizer": null, "beta_constraint": null, "beta_regularizer": null, "moving_variance_initializer": {"config": {}, "class_name": "Ones"}, "trainable": true, "gamma_initializer": {"config": {}, "class_name": "Ones"}, "momentum": 0.9, "gamma_constraint": null, "axis": -1, "beta_initializer": {"config": {}, "class_name": "Zeros"}, "epsilon": 2e-05}, "class_name": "BatchNormalization", "inbound_nodes": [[["conv2d_2", 0, 0, {}]]]}, {"name": "activation_3", "config": {"name": "activation_3", "activation": "relu", "trainable": true}, "class_name": "Activation", "inbound_nodes": [[["batch_normalization_4", 0, 0, {}]]]}, {"name": "conv2d_3", "config": {"data_format": "channels_last", "dilation_rate": [1, 1], "name": "conv2d_3", "bias_constraint": null, "filters": 32, "padding": "same", "activation": "linear", "strides": [1, 1], "kernel_constraint": null, "bias_initializer": {"config": {}, "class_name": "Zeros"}, "trainable": true, "activity_regularizer": null, "kernel_regularizer": {"config": {"l1": 0.0, "l2": 9.999999747378752e-05}, "class_name": "L1L2"}, "kernel_initializer": {"config": {"scale": 1.0, "seed": null, "distribution": "uniform", "mode": "fan_avg"}, "class_name": "VarianceScaling"}, "kernel_size": [3, 3], "use_bias": false, "bias_regularizer": null}, "class_name": "Conv2D", "inbound_nodes": [[["activation_3", 0, 0, {}]]]}, {"name": "batch_normalization_5", "config": {"scale": true, "moving_mean_initializer": {"config": {}, "class_name": "Zeros"}, "center": true, "name": "batch_normalization_5", "gamma_regularizer": null, "beta_constraint": null, "beta_regularizer": null, "moving_variance_initializer": {"config": {}, "class_name": "Ones"}, "trainable": true, "gamma_initializer": {"config": {}, "class_name": "Ones"}, "momentum": 0.9, "gamma_constraint": null, "axis": -1, "beta_initializer": {"config": {}, "class_name": "Zeros"}, "epsilon": 2e-05}, "class_name": "BatchNormalization", "inbound_nodes": [[["conv2d_3", 0, 0, {}]]]}, {"name": "activation_4", "config": {"name": "activation_4", "activation": "relu", "trainable": true}, "class_name": "Activation", "inbound_nodes": [[["batch_normalization_5", 0, 0, {}]]]}, {"name": "conv2d_4", "config": {"data_format": "channels_last", "dilation_rate": [1, 1], "name": "conv2d_4", "bias_constraint": null, "filters": 128, "padding": "valid", "activation": "linear", "strides": [1, 1], "kernel_constraint": null, "bias_initializer": {"config": {}, "class_name": "Zeros"}, "trainable": true, "activity_regularizer": null, "kernel_regularizer": {"config": {"l1": 0.0, "l2": 9.999999747378752e-05}, "class_name": "L1L2"}, "kernel_initializer": {"config": {"scale": 1.0, "seed": null, "distribution": "uniform", "mode": "fan_avg"}, "class_name": "VarianceScaling"}, "kernel_size": [1, 1], "use_bias": false, "bias_regularizer": null}, "class_name": "Conv2D", "inbound_nodes": [[["activation_4", 0, 0, {}]]]}, {"name": "conv2d_5", "config": {"data_format": "channels_last", "dilation_rate": [1, 1], "name": "conv2d_5", "bias_constraint": null, "filters": 128, "padding": "valid", "activation": "linear", "strides": [1, 1], "kernel_constraint": null, "bias_initializer": {"config": {}, "class_name": "Zeros"}, "trainable": true, "activity_regularizer": null, "kernel_regularizer": {"config": {"l1": 0.0, "l2": 9.999999747378752e-05}, "class_name": "L1L2"}, "kernel_initializer": {"config": {"scale": 1.0, "seed": null, "distribution": "uniform", "mode": "fan_avg"}, "class_name": "VarianceScaling"}, "kernel_size": [1, 1], "use_bias": false, "bias_regularizer": null}, "class_name": "Conv2D", "inbound_nodes": [[["activation_2", 0, 0, {}]]]}, {"name": "add_1", "config": {"name": "add_1", "trainable": true}, "class_name": "Add", "inbound_nodes": [[["conv2d_4", 0, 0, {}], ["conv2d_5", 0, 0, {}]]]}, {"name": "batch_normalization_6", "config": {"scale": true, "moving_mean_initializer": {"config": {}, "class_name": "Zeros"}, "center": true, "name": "batch_normalization_6", "gamma_regularizer": null, "beta_constraint": null, "beta_regularizer": null, "moving_variance_initializer": {"config": {}, "class_name": "Ones"}, "trainable": true, "gamma_initializer": {"config": {}, "class_name": "Ones"}, "momentum": 0.9, "gamma_constraint": null, "axis": -1, "beta_initializer": {"config": {}, "class_name": "Zeros"}, "epsilon": 2e-05}, "class_name": "BatchNormalization", "inbound_nodes": [[["add_1", 0, 0, {}]]]}, {"name": "activation_5", "config": {"name": "activation_5", "activation": "relu", "trainable": true}, "class_name": "Activation", "inbound_nodes": [[["batch_normalization_6", 0, 0, {}]]]}, {"name": "conv2d_6", "config": {"data_format": "channels_last", "dilation_rate": [1, 1], "name": "conv2d_6", "bias_constraint": null, "filters": 32, "padding": "valid", "activation": "linear", "strides": [1, 1], "kernel_constraint": null, "bias_initializer": {"config": {}, "class_name": "Zeros"}, "trainable": true, "activity_regularizer": null, "kernel_regularizer": {"config": {"l1": 0.0, "l2": 9.999999747378752e-05}, "class_name": "L1L2"}, "kernel_initializer": {"config": {"scale": 1.0, "seed": null, "distribution": "uniform", "mode": "fan_avg"}, "class_name": "VarianceScaling"}, "kernel_size": [1, 1], "use_bias": false, "bias_regularizer": null}, "class_name": "Conv2D", "inbound_nodes": [[["activation_5", 0, 0, {}]]]}, {"name": "batch_normalization_7", "config": {"scale": true, "moving_mean_initializer": {"config": {}, "class_name": "Zeros"}, "center": true, "name": "batch_normalization_7", "gamma_regularizer": null, "beta_constraint": null, "beta_regularizer": null, "moving_variance_initializer": {"config": {}, "class_name": "Ones"}, "trainable": true, "gamma_initializer": {"config": {}, "class_name": "Ones"}, "momentum": 0.9, "gamma_constraint": null, "axis": -1, "beta_initializer": {"config": {}, "class_name": "Zeros"}, "epsilon": 2e-05}, "class_name": "BatchNormalization", "inbound_nodes": [[["conv2d_6", 0, 0, {}]]]}, {"name": "activation_6", "config": {"name": "activation_6", "activation": "relu", "trainable": true}, "class_name": "Activation", "inbound_nodes": [[["batch_normalization_7", 0, 0, {}]]]}, {"name": "conv2d_7", "config": {"data_format": "channels_last", "dilation_rate": [1, 1], "name": "conv2d_7", "bias_constraint": null, "filters": 32, "padding": "same", "activation": "linear", "strides": [1, 1], "kernel_constraint": null, "bias_initializer": {"config": {}, "class_name": "Zeros"}, "trainable": true, "activity_regularizer": null, "kernel_regularizer": {"config": {"l1": 0.0, "l2": 9.999999747378752e-05}, "class_name": "L1L2"}, "kernel_initializer": {"config": {"scale": 1.0, "seed": null, "distribution": "uniform", "mode": "fan_avg"}, "class_name": "VarianceScaling"}, "kernel_size": [3, 3], "use_bias": false, "bias_regularizer": null}, "class_name": "Conv2D", "inbound_nodes": [[["activation_6", 0, 0, {}]]]}, {"name": "batch_normalization_8", "config": {"scale": true, "moving_mean_initializer": {"config": {}, "class_name": "Zeros"}, "center": true, "name": "batch_normalization_8", "gamma_regularizer": null, "beta_constraint": null, "beta_regularizer": null, "moving_variance_initializer": {"config": {}, "class_name": "Ones"}, "trainable": true, "gamma_initializer": {"config": {}, "class_name": "Ones"}, "momentum": 0.9, "gamma_constraint": null, "axis": -1, "beta_initializer": {"config": {}, "class_name": "Zeros"}, "epsilon": 2e-05}, "class_name": "BatchNormalization", "inbound_nodes": [[["conv2d_7", 0, 0, {}]]]}, {"name": "activation_7", "config": {"name": "activation_7", "activation": "relu", "trainable": true}, "class_name": "Activation", "inbound_nodes": [[["batch_normalization_8", 0, 0, {}]]]}, {"name": "conv2d_8", "config": {"data_format": "channels_last", "dilation_rate": [1, 1], "name": "conv2d_8", "bias_constraint": null, "filters": 128, "padding": "valid", "activation": "linear", "strides": [1, 1], "kernel_constraint": null, "bias_initializer": {"config": {}, "class_name": "Zeros"}, "trainable": true, "activity_regularizer": null, "kernel_regularizer": {"config": {"l1": 0.0, "l2": 9.999999747378752e-05}, "class_name": "L1L2"}, "kernel_initializer": {"config": {"scale": 1.0, "seed": null, "distribution": "uniform", "mode": "fan_avg"}, "class_name": "VarianceScaling"}, "kernel_size": [1, 1], "use_bias": false, "bias_regularizer": null}, "class_name": "Conv2D", "inbound_nodes": [[["activation_7", 0, 0, {}]]]}, {"name": "add_2", "config": {"name": "add_2", "trainable": true}, "class_name": "Add", "inbound_nodes": [[["conv2d_8", 0, 0, {}], ["add_1", 0, 0, {}]]]}, {"name": "batch_normalization_9", "config": {"scale": true, "moving_mean_initializer": {"config": {}, "class_name": "Zeros"}, "center": true, "name": "batch_normalization_9", "gamma_regularizer": null, "beta_constraint": null, "beta_regularizer": null, "moving_variance_initializer": {"config": {}, "class_name": "Ones"}, "trainable": true, "gamma_initializer": {"config": {}, "class_name": "Ones"}, "momentum": 0.9, "gamma_constraint": null, "axis": -1, "beta_initializer": {"config": {}, "class_name": "Zeros"}, "epsilon": 2e-05}, "class_name": "BatchNormalization", "inbound_nodes": [[["add_2", 0, 0, {}]]]}, {"name": "activation_8", "config": {"name": "activation_8", "activation": "relu", "trainable": true}, "class_name": "Activation", "inbound_nodes": [[["batch_normalization_9", 0, 0, {}]]]}, {"name": "conv2d_9", "config": {"data_format": "channels_last", "dilation_rate": [1, 1], "name": "conv2d_9", "bias_constraint": null, "filters": 32, "padding": "valid", "activation": "linear", "strides": [1, 1], "kernel_constraint": null, "bias_initializer": {"config": {}, "class_name": "Zeros"}, "trainable": true, "activity_regularizer": null, "kernel_regularizer": {"config": {"l1": 0.0, "l2": 9.999999747378752e-05}, "class_name": "L1L2"}, "kernel_initializer": {"config": {"scale": 1.0, "seed": null, "distribution": "uniform", "mode": "fan_avg"}, "class_name": "VarianceScaling"}, "kernel_size": [1, 1], "use_bias": false, "bias_regularizer": null}, "class_name": "Conv2D", "inbound_nodes": [[["activation_8", 0, 0, {}]]]}, {"name": "batch_normalization_10", "config": {"scale": true, "moving_mean_initializer": {"config": {}, "class_name": "Zeros"}, "center": true, "name": "batch_normalization_10", "gamma_regularizer": null, "beta_constraint": null, "beta_regularizer": null, "moving_variance_initializer": {"config": {}, "class_name": "Ones"}, "trainable": true, "gamma_initializer": {"config": {}, "class_name": "Ones"}, "momentum": 0.9, "gamma_constraint": null, "axis": -1, "beta_initializer": {"config": {}, "class_name": "Zeros"}, "epsilon": 2e-05}, "class_name": "BatchNormalization", "inbound_nodes": [[["conv2d_9", 0, 0, {}]]]}, {"name": "activation_9", "config": {"name": "activation_9", "activation": "relu", "trainable": true}, "class_name": "Activation", "inbound_nodes": [[["batch_normalization_10", 0, 0, {}]]]}, {"name": "conv2d_10", "config": {"data_format": "channels_last", "dilation_rate": [1, 1], "name": "conv2d_10", "bias_constraint": null, "filters": 32, "padding": "same", "activation": "linear", "strides": [1, 1], "kernel_constraint": null, "bias_initializer": {"config": {}, "class_name": "Zeros"}, "trainable": true, "activity_regularizer": null, "kernel_regularizer": {"config": {"l1": 0.0, "l2": 9.999999747378752e-05}, "class_name": "L1L2"}, "kernel_initializer": {"config": {"scale": 1.0, "seed": null, "distribution": "uniform", "mode": "fan_avg"}, "class_name": "VarianceScaling"}, "kernel_size": [3, 3], "use_bias": false, "bias_regularizer": null}, "class_name": "Conv2D", "inbound_nodes": [[["activation_9", 0, 0, {}]]]}, {"name": "batch_normalization_11", "config": {"scale": true, "moving_mean_initializer": {"config": {}, "class_name": "Zeros"}, "center": true, "name": "batch_normalization_11", "gamma_regularizer": null, "beta_constraint": null, "beta_regularizer": null, "moving_variance_initializer": {"config": {}, "class_name": "Ones"}, "trainable": true, "gamma_initializer": {"config": {}, "class_name": "Ones"}, "momentum": 0.9, "gamma_constraint": null, "axis": -1, "beta_initializer": {"config": {}, "class_name": "Zeros"}, "epsilon": 2e-05}, "class_name": "BatchNormalization", "inbound_nodes": [[["conv2d_10", 0, 0, {}]]]}, {"name": "activation_10", "config": {"name": "activation_10", "activation": "relu", "trainable": true}, "class_name": "Activation", "inbound_nodes": [[["batch_normalization_11", 0, 0, {}]]]}, {"name": "conv2d_11", "config": {"data_format": "channels_last", "dilation_rate": [1, 1], "name": "conv2d_11", "bias_constraint": null, "filters": 128, "padding": "valid", "activation": "linear", "strides": [1, 1], "kernel_constraint": null, "bias_initializer": {"config": {}, "class_name": "Zeros"}, "trainable": true, "activity_regularizer": null, "kernel_regularizer": {"config": {"l1": 0.0, "l2": 9.999999747378752e-05}, "class_name": "L1L2"}, "kernel_initializer": {"config": {"scale": 1.0, "seed": null, "distribution": "uniform", "mode": "fan_avg"}, "class_name": "VarianceScaling"}, "kernel_size": [1, 1], "use_bias": false, "bias_regularizer": null}, "class_name": "Conv2D", "inbound_nodes": [[["activation_10", 0, 0, {}]]]}, {"name": "add_3", "config": {"name": "add_3", "trainable": true}, "class_name": "Add", "inbound_nodes": [[["conv2d_11", 0, 0, {}], ["add_2", 0, 0, {}]]]}, {"name": "batch_normalization_12", "config": {"scale": true, "moving_mean_initializer": {"config": {}, "class_name": "Zeros"}, "center": true, "name": "batch_normalization_12", "gamma_regularizer": null, "beta_constraint": null, "beta_regularizer": null, "moving_variance_initializer": {"config": {}, "class_name": "Ones"}, "trainable": true, "gamma_initializer": {"config": {}, "class_name": "Ones"}, "momentum": 0.9, "gamma_constraint": null, "axis": -1, "beta_initializer": {"config": {}, "class_name": "Zeros"}, "epsilon": 2e-05}, "class_name": "BatchNormalization", "inbound_nodes": [[["add_3", 0, 0, {}]]]}, {"name": "activation_11", "config": {"name": "activation_11", "activation": "relu", "trainable": true}, "class_name": "Activation", "inbound_nodes": [[["batch_normalization_12", 0, 0, {}]]]}, {"name": "conv2d_12", "config": {"data_format": "channels_last", "dilation_rate": [1, 1], "name": "conv2d_12", "bias_constraint": null, "filters": 64, "padding": "valid", "activation": "linear", "strides": [1, 1], "kernel_constraint": null, "bias_initializer": {"config": {}, "class_name": "Zeros"}, "trainable": true, "activity_regularizer": null, "kernel_regularizer": {"config": {"l1": 0.0, "l2": 9.999999747378752e-05}, "class_name": "L1L2"}, "kernel_initializer": {"config": {"scale": 1.0, "seed": null, "distribution": "uniform", "mode": "fan_avg"}, "class_name": "VarianceScaling"}, "kernel_size": [1, 1], "use_bias": false, "bias_regularizer": null}, "class_name": "Conv2D", "inbound_nodes": [[["activation_11", 0, 0, {}]]]}, {"name": "batch_normalization_13", "config": {"scale": true, "moving_mean_initializer": {"config": {}, "class_name": "Zeros"}, "center": true, "name": "batch_normalization_13", "gamma_regularizer": null, "beta_constraint": null, "beta_regularizer": null, "moving_variance_initializer": {"config": {}, "class_name": "Ones"}, "trainable": true, "gamma_initializer": {"config": {}, "class_name": "Ones"}, "momentum": 0.9, "gamma_constraint": null, "axis": -1, "beta_initializer": {"config": {}, "class_name": "Zeros"}, "epsilon": 2e-05}, "class_name": "BatchNormalization", "inbound_nodes": [[["conv2d_12", 0, 0, {}]]]}, {"name": "activation_12", "config": {"name": "activation_12", "activation": "relu", "trainable": true}, "class_name": "Activation", "inbound_nodes": [[["batch_normalization_13", 0, 0, {}]]]}, {"name": "conv2d_13", "config": {"data_format": "channels_last", "dilation_rate": [1, 1], "name": "conv2d_13", "bias_constraint": null, "filters": 64, "padding": "same", "activation": "linear", "strides": [2, 2], "kernel_constraint": null, "bias_initializer": {"config": {}, "class_name": "Zeros"}, "trainable": true, "activity_regularizer": null, "kernel_regularizer": {"config": {"l1": 0.0, "l2": 9.999999747378752e-05}, "class_name": "L1L2"}, "kernel_initializer": {"config": {"scale": 1.0, "seed": null, "distribution": "uniform", "mode": "fan_avg"}, "class_name": "VarianceScaling"}, "kernel_size": [3, 3], "use_bias": false, "bias_regularizer": null}, "class_name": "Conv2D", "inbound_nodes": [[["activation_12", 0, 0, {}]]]}, {"name": "batch_normalization_14", "config": {"scale": true, "moving_mean_initializer": {"config": {}, "class_name": "Zeros"}, "center": true, "name": "batch_normalization_14", "gamma_regularizer": null, "beta_constraint": null, "beta_regularizer": null, "moving_variance_initializer": {"config": {}, "class_name": "Ones"}, "trainable": true, "gamma_initializer": {"config": {}, "class_name": "Ones"}, "momentum": 0.9, "gamma_constraint": null, "axis": -1, "beta_initializer": {"config": {}, "class_name": "Zeros"}, "epsilon": 2e-05}, "class_name": "BatchNormalization", "inbound_nodes": [[["conv2d_13", 0, 0, {}]]]}, {"name": "activation_13", "config": {"name": "activation_13", "activation": "relu", "trainable": true}, "class_name": "Activation", "inbound_nodes": [[["batch_normalization_14", 0, 0, {}]]]}, {"name": "conv2d_14", "config": {"data_format": "channels_last", "dilation_rate": [1, 1], "name": "conv2d_14", "bias_constraint": null, "filters": 256, "padding": "valid", "activation": "linear", "strides": [1, 1], "kernel_constraint": null, "bias_initializer": {"config": {}, "class_name": "Zeros"}, "trainable": true, "activity_regularizer": null, "kernel_regularizer": {"config": {"l1": 0.0, "l2": 9.999999747378752e-05}, "class_name": "L1L2"}, "kernel_initializer": {"config": {"scale": 1.0, "seed": null, "distribution": "uniform", "mode": "fan_avg"}, "class_name": "VarianceScaling"}, "kernel_size": [1, 1], "use_bias": false, "bias_regularizer": null}, "class_name": "Conv2D", "inbound_nodes": [[["activation_13", 0, 0, {}]]]}, {"name": "conv2d_15", "config": {"data_format": "channels_last", "dilation_rate": [1, 1], "name": "conv2d_15", "bias_constraint": null, "filters": 256, "padding": "valid", "activation": "linear", "strides": [2, 2], "kernel_constraint": null, "bias_initializer": {"config": {}, "class_name": "Zeros"}, "trainable": true, "activity_regularizer": null, "kernel_regularizer": {"config": {"l1": 0.0, "l2": 9.999999747378752e-05}, "class_name": "L1L2"}, "kernel_initializer": {"config": {"scale": 1.0, "seed": null, "distribution": "uniform", "mode": "fan_avg"}, "class_name": "VarianceScaling"}, "kernel_size": [1, 1], "use_bias": false, "bias_regularizer": null}, "class_name": "Conv2D", "inbound_nodes": [[["activation_11", 0, 0, {}]]]}, {"name": "add_4", "config": {"name": "add_4", "trainable": true}, "class_name": "Add", "inbound_nodes": [[["conv2d_14", 0, 0, {}], ["conv2d_15", 0, 0, {}]]]}, {"name": "batch_normalization_15", "config": {"scale": true, "moving_mean_initializer": {"config": {}, "class_name": "Zeros"}, "center": true, "name": "batch_normalization_15", "gamma_regularizer": null, "beta_constraint": null, "beta_regularizer": null, "moving_variance_initializer": {"config": {}, "class_name": "Ones"}, "trainable": true, "gamma_initializer": {"config": {}, "class_name": "Ones"}, "momentum": 0.9, "gamma_constraint": null, "axis": -1, "beta_initializer": {"config": {}, "class_name": "Zeros"}, "epsilon": 2e-05}, "class_name": "BatchNormalization", "inbound_nodes": [[["add_4", 0, 0, {}]]]}, {"name": "activation_14", "config": {"name": "activation_14", "activation": "relu", "trainable": true}, "class_name": "Activation", "inbound_nodes": [[["batch_normalization_15", 0, 0, {}]]]}, {"name": "conv2d_16", "config": {"data_format": "channels_last", "dilation_rate": [1, 1], "name": "conv2d_16", "bias_constraint": null, "filters": 64, "padding": "valid", "activation": "linear", "strides": [1, 1], "kernel_constraint": null, "bias_initializer": {"config": {}, "class_name": "Zeros"}, "trainable": true, "activity_regularizer": null, "kernel_regularizer": {"config": {"l1": 0.0, "l2": 9.999999747378752e-05}, "class_name": "L1L2"}, "kernel_initializer": {"config": {"scale": 1.0, "seed": null, "distribution": "uniform", "mode": "fan_avg"}, "class_name": "VarianceScaling"}, "kernel_size": [1, 1], "use_bias": false, "bias_regularizer": null}, "class_name": "Conv2D", "inbound_nodes": [[["activation_14", 0, 0, {}]]]}, {"name": "batch_normalization_16", "config": {"scale": true, "moving_mean_initializer": {"config": {}, "class_name": "Zeros"}, "center": true, "name": "batch_normalization_16", "gamma_regularizer": null, "beta_constraint": null, "beta_regularizer": null, "moving_variance_initializer": {"config": {}, "class_name": "Ones"}, "trainable": true, "gamma_initializer": {"config": {}, "class_name": "Ones"}, "momentum": 0.9, "gamma_constraint": null, "axis": -1, "beta_initializer": {"config": {}, "class_name": "Zeros"}, "epsilon": 2e-05}, "class_name": "BatchNormalization", "inbound_nodes": [[["conv2d_16", 0, 0, {}]]]}, {"name": "activation_15", "config": {"name": "activation_15", "activation": "relu", "trainable": true}, "class_name": "Activation", "inbound_nodes": [[["batch_normalization_16", 0, 0, {}]]]}, {"name": "conv2d_17", "config": {"data_format": "channels_last", "dilation_rate": [1, 1], "name": "conv2d_17", "bias_constraint": null, "filters": 64, "padding": "same", "activation": "linear", "strides": [1, 1], "kernel_constraint": null, "bias_initializer": {"config": {}, "class_name": "Zeros"}, "trainable": true, "activity_regularizer": null, "kernel_regularizer": {"config": {"l1": 0.0, "l2": 9.999999747378752e-05}, "class_name": "L1L2"}, "kernel_initializer": {"config": {"scale": 1.0, "seed": null, "distribution": "uniform", "mode": "fan_avg"}, "class_name": "VarianceScaling"}, "kernel_size": [3, 3], "use_bias": false, "bias_regularizer": null}, "class_name": "Conv2D", "inbound_nodes": [[["activation_15", 0, 0, {}]]]}, {"name": "batch_normalization_17", "config": {"scale": true, "moving_mean_initializer": {"config": {}, "class_name": "Zeros"}, "center": true, "name": "batch_normalization_17", "gamma_regularizer": null, "beta_constraint": null, "beta_regularizer": null, "moving_variance_initializer": {"config": {}, "class_name": "Ones"}, "trainable": true, "gamma_initializer": {"config": {}, "class_name": "Ones"}, "momentum": 0.9, "gamma_constraint": null, "axis": -1, "beta_initializer": {"config": {}, "class_name": "Zeros"}, "epsilon": 2e-05}, "class_name": "BatchNormalization", "inbound_nodes": [[["conv2d_17", 0, 0, {}]]]}, {"name": "activation_16", "config": {"name": "activation_16", "activation": "relu", "trainable": true}, "class_name": "Activation", "inbound_nodes": [[["batch_normalization_17", 0, 0, {}]]]}, {"name": "conv2d_18", "config": {"data_format": "channels_last", "dilation_rate": [1, 1], "name": "conv2d_18", "bias_constraint": null, "filters": 256, "padding": "valid", "activation": "linear", "strides": [1, 1], "kernel_constraint": null, "bias_initializer": {"config": {}, "class_name": "Zeros"}, "trainable": true, "activity_regularizer": null, "kernel_regularizer": {"config": {"l1": 0.0, "l2": 9.999999747378752e-05}, "class_name": "L1L2"}, "kernel_initializer": {"config": {"scale": 1.0, "seed": null, "distribution": "uniform", "mode": "fan_avg"}, "class_name": "VarianceScaling"}, "kernel_size": [1, 1], "use_bias": false, "bias_regularizer": null}, "class_name": "Conv2D", "inbound_nodes": [[["activation_16", 0, 0, {}]]]}, {"name": "add_5", "config": {"name": "add_5", "trainable": true}, "class_name": "Add", "inbound_nodes": [[["conv2d_18", 0, 0, {}], ["add_4", 0, 0, {}]]]}, {"name": "batch_normalization_18", "config": {"scale": true, "moving_mean_initializer": {"config": {}, "class_name": "Zeros"}, "center": true, "name": "batch_normalization_18", "gamma_regularizer": null, "beta_constraint": null, "beta_regularizer": null, "moving_variance_initializer": {"config": {}, "class_name": "Ones"}, "trainable": true, "gamma_initializer": {"config": {}, "class_name": "Ones"}, "momentum": 0.9, "gamma_constraint": null, "axis": -1, "beta_initializer": {"config": {}, "class_name": "Zeros"}, "epsilon": 2e-05}, "class_name": "BatchNormalization", "inbound_nodes": [[["add_5", 0, 0, {}]]]}, {"name": "activation_17", "config": {"name": "activation_17", "activation": "relu", "trainable": true}, "class_name": "Activation", "inbound_nodes": [[["batch_normalization_18", 0, 0, {}]]]}, {"name": "conv2d_19", "config": {"data_format": "channels_last", "dilation_rate": [1, 1], "name": "conv2d_19", "bias_constraint": null, "filters": 64, "padding": "valid", "activation": "linear", "strides": [1, 1], "kernel_constraint": null, "bias_initializer": {"config": {}, "class_name": "Zeros"}, "trainable": true, "activity_regularizer": null, "kernel_regularizer": {"config": {"l1": 0.0, "l2": 9.999999747378752e-05}, "class_name": "L1L2"}, "kernel_initializer": {"config": {"scale": 1.0, "seed": null, "distribution": "uniform", "mode": "fan_avg"}, "class_name": "VarianceScaling"}, "kernel_size": [1, 1], "use_bias": false, "bias_regularizer": null}, "class_name": "Conv2D", "inbound_nodes": [[["activation_17", 0, 0, {}]]]}, {"name": "batch_normalization_19", "config": {"scale": true, "moving_mean_initializer": {"config": {}, "class_name": "Zeros"}, "center": true, "name": "batch_normalization_19", "gamma_regularizer": null, "beta_constraint": null, "beta_regularizer": null, "moving_variance_initializer": {"config": {}, "class_name": "Ones"}, "trainable": true, "gamma_initializer": {"config": {}, "class_name": "Ones"}, "momentum": 0.9, "gamma_constraint": null, "axis": -1, "beta_initializer": {"config": {}, "class_name": "Zeros"}, "epsilon": 2e-05}, "class_name": "BatchNormalization", "inbound_nodes": [[["conv2d_19", 0, 0, {}]]]}, {"name": "activation_18", "config": {"name": "activation_18", "activation": "relu", "trainable": true}, "class_name": "Activation", "inbound_nodes": [[["batch_normalization_19", 0, 0, {}]]]}, {"name": "conv2d_20", "config": {"data_format": "channels_last", "dilation_rate": [1, 1], "name": "conv2d_20", "bias_constraint": null, "filters": 64, "padding": "same", "activation": "linear", "strides": [1, 1], "kernel_constraint": null, "bias_initializer": {"config": {}, "class_name": "Zeros"}, "trainable": true, "activity_regularizer": null, "kernel_regularizer": {"config": {"l1": 0.0, "l2": 9.999999747378752e-05}, "class_name": "L1L2"}, "kernel_initializer": {"config": {"scale": 1.0, "seed": null, "distribution": "uniform", "mode": "fan_avg"}, "class_name": "VarianceScaling"}, "kernel_size": [3, 3], "use_bias": false, "bias_regularizer": null}, "class_name": "Conv2D", "inbound_nodes": [[["activation_18", 0, 0, {}]]]}, {"name": "batch_normalization_20", "config": {"scale": true, "moving_mean_initializer": {"config": {}, "class_name": "Zeros"}, "center": true, "name": "batch_normalization_20", "gamma_regularizer": null, "beta_constraint": null, "beta_regularizer": null, "moving_variance_initializer": {"config": {}, "class_name": "Ones"}, "trainable": true, "gamma_initializer": {"config": {}, "class_name": "Ones"}, "momentum": 0.9, "gamma_constraint": null, "axis": -1, "beta_initializer": {"config": {}, "class_name": "Zeros"}, "epsilon": 2e-05}, "class_name": "BatchNormalization", "inbound_nodes": [[["conv2d_20", 0, 0, {}]]]}, {"name": "activation_19", "config": {"name": "activation_19", "activation": "relu", "trainable": true}, "class_name": "Activation", "inbound_nodes": [[["batch_normalization_20", 0, 0, {}]]]}, {"name": "conv2d_21", "config": {"data_format": "channels_last", "dilation_rate": [1, 1], "name": "conv2d_21", "bias_constraint": null, "filters": 256, "padding": "valid", "activation": "linear", "strides": [1, 1], "kernel_constraint": null, "bias_initializer": {"config": {}, "class_name": "Zeros"}, "trainable": true, "activity_regularizer": null, "kernel_regularizer": {"config": {"l1": 0.0, "l2": 9.999999747378752e-05}, "class_name": "L1L2"}, "kernel_initializer": {"config": {"scale": 1.0, "seed": null, "distribution": "uniform", "mode": "fan_avg"}, "class_name": "VarianceScaling"}, "kernel_size": [1, 1], "use_bias": false, "bias_regularizer": null}, "class_name": "Conv2D", "inbound_nodes": [[["activation_19", 0, 0, {}]]]}, {"name": "add_6", "config": {"name": "add_6", "trainable": true}, "class_name": "Add", "inbound_nodes": [[["conv2d_21", 0, 0, {}], ["add_5", 0, 0, {}]]]}, {"name": "batch_normalization_21", "config": {"scale": true, "moving_mean_initializer": {"config": {}, "class_name": "Zeros"}, "center": true, "name": "batch_normalization_21", "gamma_regularizer": null, "beta_constraint": null, "beta_regularizer": null, "moving_variance_initializer": {"config": {}, "class_name": "Ones"}, "trainable": true, "gamma_initializer": {"config": {}, "class_name": "Ones"}, "momentum": 0.9, "gamma_constraint": null, "axis": -1, "beta_initializer": {"config": {}, "class_name": "Zeros"}, "epsilon": 2e-05}, "class_name": "BatchNormalization", "inbound_nodes": [[["add_6", 0, 0, {}]]]}, {"name": "activation_20", "config": {"name": "activation_20", "activation": "relu", "trainable": true}, "class_name": "Activation", "inbound_nodes": [[["batch_normalization_21", 0, 0, {}]]]}, {"name": "conv2d_22", "config": {"data_format": "channels_last", "dilation_rate": [1, 1], "name": "conv2d_22", "bias_constraint": null, "filters": 64, "padding": "valid", "activation": "linear", "strides": [1, 1], "kernel_constraint": null, "bias_initializer": {"config": {}, "class_name": "Zeros"}, "trainable": true, "activity_regularizer": null, "kernel_regularizer": {"config": {"l1": 0.0, "l2": 9.999999747378752e-05}, "class_name": "L1L2"}, "kernel_initializer": {"config": {"scale": 1.0, "seed": null, "distribution": "uniform", "mode": "fan_avg"}, "class_name": "VarianceScaling"}, "kernel_size": [1, 1], "use_bias": false, "bias_regularizer": null}, "class_name": "Conv2D", "inbound_nodes": [[["activation_20", 0, 0, {}]]]}, {"name": "batch_normalization_22", "config": {"scale": true, "moving_mean_initializer": {"config": {}, "class_name": "Zeros"}, "center": true, "name": "batch_normalization_22", "gamma_regularizer": null, "beta_constraint": null, "beta_regularizer": null, "moving_variance_initializer": {"config": {}, "class_name": "Ones"}, "trainable": true, "gamma_initializer": {"config": {}, "class_name": "Ones"}, "momentum": 0.9, "gamma_constraint": null, "axis": -1, "beta_initializer": {"config": {}, "class_name": "Zeros"}, "epsilon": 2e-05}, "class_name": "BatchNormalization", "inbound_nodes": [[["conv2d_22", 0, 0, {}]]]}, {"name": "activation_21", "config": {"name": "activation_21", "activation": "relu", "trainable": true}, "class_name": "Activation", "inbound_nodes": [[["batch_normalization_22", 0, 0, {}]]]}, {"name": "conv2d_23", "config": {"data_format": "channels_last", "dilation_rate": [1, 1], "name": "conv2d_23", "bias_constraint": null, "filters": 64, "padding": "same", "activation": "linear", "strides": [1, 1], "kernel_constraint": null, "bias_initializer": {"config": {}, "class_name": "Zeros"}, "trainable": true, "activity_regularizer": null, "kernel_regularizer": {"config": {"l1": 0.0, "l2": 9.999999747378752e-05}, "class_name": "L1L2"}, "kernel_initializer": {"config": {"scale": 1.0, "seed": null, "distribution": "uniform", "mode": "fan_avg"}, "class_name": "VarianceScaling"}, "kernel_size": [3, 3], "use_bias": false, "bias_regularizer": null}, "class_name": "Conv2D", "inbound_nodes": [[["activation_21", 0, 0, {}]]]}, {"name": "batch_normalization_23", "config": {"scale": true, "moving_mean_initializer": {"config": {}, "class_name": "Zeros"}, "center": true, "name": "batch_normalization_23", "gamma_regularizer": null, "beta_constraint": null, "beta_regularizer": null, "moving_variance_initializer": {"config": {}, "class_name": "Ones"}, "trainable": true, "gamma_initializer": {"config": {}, "class_name": "Ones"}, "momentum": 0.9, "gamma_constraint": null, "axis": -1, "beta_initializer": {"config": {}, "class_name": "Zeros"}, "epsilon": 2e-05}, "class_name": "BatchNormalization", "inbound_nodes": [[["conv2d_23", 0, 0, {}]]]}, {"name": "activation_22", "config": {"name": "activation_22", "activation": "relu", "trainable": true}, "class_name": "Activation", "inbound_nodes": [[["batch_normalization_23", 0, 0, {}]]]}, {"name": "conv2d_24", "config": {"data_format": "channels_last", "dilation_rate": [1, 1], "name": "conv2d_24", "bias_constraint": null, "filters": 256, "padding": "valid", "activation": "linear", "strides": [1, 1], "kernel_constraint": null, "bias_initializer": {"config": {}, "class_name": "Zeros"}, "trainable": true, "activity_regularizer": null, "kernel_regularizer": {"config": {"l1": 0.0, "l2": 9.999999747378752e-05}, "class_name": "L1L2"}, "kernel_initializer": {"config": {"scale": 1.0, "seed": null, "distribution": "uniform", "mode": "fan_avg"}, "class_name": "VarianceScaling"}, "kernel_size": [1, 1], "use_bias": false, "bias_regularizer": null}, "class_name": "Conv2D", "inbound_nodes": [[["activation_22", 0, 0, {}]]]}, {"name": "add_7", "config": {"name": "add_7", "trainable": true}, "class_name": "Add", "inbound_nodes": [[["conv2d_24", 0, 0, {}], ["add_6", 0, 0, {}]]]}, {"name": "batch_normalization_24", "config": {"scale": true, "moving_mean_initializer": {"config": {}, "class_name": "Zeros"}, "center": true, "name": "batch_normalization_24", "gamma_regularizer": null, "beta_constraint": null, "beta_regularizer": null, "moving_variance_initializer": {"config": {}, "class_name": "Ones"}, "trainable": true, "gamma_initializer": {"config": {}, "class_name": "Ones"}, "momentum": 0.9, "gamma_constraint": null, "axis": -1, "beta_initializer": {"config": {}, "class_name": "Zeros"}, "epsilon": 2e-05}, "class_name": "BatchNormalization", "inbound_nodes": [[["add_7", 0, 0, {}]]]}, {"name": "activation_23", "config": {"name": "activation_23", "activation": "relu", "trainable": true}, "class_name": "Activation", "inbound_nodes": [[["batch_normalization_24", 0, 0, {}]]]}, {"name": "conv2d_25", "config": {"data_format": "channels_last", "dilation_rate": [1, 1], "name": "conv2d_25", "bias_constraint": null, "filters": 128, "padding": "valid", "activation": "linear", "strides": [1, 1], "kernel_constraint": null, "bias_initializer": {"config": {}, "class_name": "Zeros"}, "trainable": true, "activity_regularizer": null, "kernel_regularizer": {"config": {"l1": 0.0, "l2": 9.999999747378752e-05}, "class_name": "L1L2"}, "kernel_initializer": {"config": {"scale": 1.0, "seed": null, "distribution": "uniform", "mode": "fan_avg"}, "class_name": "VarianceScaling"}, "kernel_size": [1, 1], "use_bias": false, "bias_regularizer": null}, "class_name": "Conv2D", "inbound_nodes": [[["activation_23", 0, 0, {}]]]}, {"name": "batch_normalization_25", "config": {"scale": true, "moving_mean_initializer": {"config": {}, "class_name": "Zeros"}, "center": true, "name": "batch_normalization_25", "gamma_regularizer": null, "beta_constraint": null, "beta_regularizer": null, "moving_variance_initializer": {"config": {}, "class_name": "Ones"}, "trainable": true, "gamma_initializer": {"config": {}, "class_name": "Ones"}, "momentum": 0.9, "gamma_constraint": null, "axis": -1, "beta_initializer": {"config": {}, "class_name": "Zeros"}, "epsilon": 2e-05}, "class_name": "BatchNormalization", "inbound_nodes": [[["conv2d_25", 0, 0, {}]]]}, {"name": "activation_24", "config": {"name": "activation_24", "activation": "relu", "trainable": true}, "class_name": "Activation", "inbound_nodes": [[["batch_normalization_25", 0, 0, {}]]]}, {"name": "conv2d_26", "config": {"data_format": "channels_last", "dilation_rate": [1, 1], "name": "conv2d_26", "bias_constraint": null, "filters": 128, "padding": "same", "activation": "linear", "strides": [2, 2], "kernel_constraint": null, "bias_initializer": {"config": {}, "class_name": "Zeros"}, "trainable": true, "activity_regularizer": null, "kernel_regularizer": {"config": {"l1": 0.0, "l2": 9.999999747378752e-05}, "class_name": "L1L2"}, "kernel_initializer": {"config": {"scale": 1.0, "seed": null, "distribution": "uniform", "mode": "fan_avg"}, "class_name": "VarianceScaling"}, "kernel_size": [3, 3], "use_bias": false, "bias_regularizer": null}, "class_name": "Conv2D", "inbound_nodes": [[["activation_24", 0, 0, {}]]]}, {"name": "batch_normalization_26", "config": {"scale": true, "moving_mean_initializer": {"config": {}, "class_name": "Zeros"}, "center": true, "name": "batch_normalization_26", "gamma_regularizer": null, "beta_constraint": null, "beta_regularizer": null, "moving_variance_initializer": {"config": {}, "class_name": "Ones"}, "trainable": true, "gamma_initializer": {"config": {}, "class_name": "Ones"}, "momentum": 0.9, "gamma_constraint": null, "axis": -1, "beta_initializer": {"config": {}, "class_name": "Zeros"}, "epsilon": 2e-05}, "class_name": "BatchNormalization", "inbound_nodes": [[["conv2d_26", 0, 0, {}]]]}, {"name": "activation_25", "config": {"name": "activation_25", "activation": "relu", "trainable": true}, "class_name": "Activation", "inbound_nodes": [[["batch_normalization_26", 0, 0, {}]]]}, {"name": "conv2d_27", "config": {"data_format": "channels_last", "dilation_rate": [1, 1], "name": "conv2d_27", "bias_constraint": null, "filters": 512, "padding": "valid", "activation": "linear", "strides": [1, 1], "kernel_constraint": null, "bias_initializer": {"config": {}, "class_name": "Zeros"}, "trainable": true, "activity_regularizer": null, "kernel_regularizer": {"config": {"l1": 0.0, "l2": 9.999999747378752e-05}, "class_name": "L1L2"}, "kernel_initializer": {"config": {"scale": 1.0, "seed": null, "distribution": "uniform", "mode": "fan_avg"}, "class_name": "VarianceScaling"}, "kernel_size": [1, 1], "use_bias": false, "bias_regularizer": null}, "class_name": "Conv2D", "inbound_nodes": [[["activation_25", 0, 0, {}]]]}, {"name": "conv2d_28", "config": {"data_format": "channels_last", "dilation_rate": [1, 1], "name": "conv2d_28", "bias_constraint": null, "filters": 512, "padding": "valid", "activation": "linear", "strides": [2, 2], "kernel_constraint": null, "bias_initializer": {"config": {}, "class_name": "Zeros"}, "trainable": true, "activity_regularizer": null, "kernel_regularizer": {"config": {"l1": 0.0, "l2": 9.999999747378752e-05}, "class_name": "L1L2"}, "kernel_initializer": {"config": {"scale": 1.0, "seed": null, "distribution": "uniform", "mode": "fan_avg"}, "class_name": "VarianceScaling"}, "kernel_size": [1, 1], "use_bias": false, "bias_regularizer": null}, "class_name": "Conv2D", "inbound_nodes": [[["activation_23", 0, 0, {}]]]}, {"name": "add_8", "config": {"name": "add_8", "trainable": true}, "class_name": "Add", "inbound_nodes": [[["conv2d_27", 0, 0, {}], ["conv2d_28", 0, 0, {}]]]}, {"name": "batch_normalization_27", "config": {"scale": true, "moving_mean_initializer": {"config": {}, "class_name": "Zeros"}, "center": true, "name": "batch_normalization_27", "gamma_regularizer": null, "beta_constraint": null, "beta_regularizer": null, "moving_variance_initializer": {"config": {}, "class_name": "Ones"}, "trainable": true, "gamma_initializer": {"config": {}, "class_name": "Ones"}, "momentum": 0.9, "gamma_constraint": null, "axis": -1, "beta_initializer": {"config": {}, "class_name": "Zeros"}, "epsilon": 2e-05}, "class_name": "BatchNormalization", "inbound_nodes": [[["add_8", 0, 0, {}]]]}, {"name": "activation_26", "config": {"name": "activation_26", "activation": "relu", "trainable": true}, "class_name": "Activation", "inbound_nodes": [[["batch_normalization_27", 0, 0, {}]]]}, {"name": "conv2d_29", "config": {"data_format": "channels_last", "dilation_rate": [1, 1], "name": "conv2d_29", "bias_constraint": null, "filters": 128, "padding": "valid", "activation": "linear", "strides": [1, 1], "kernel_constraint": null, "bias_initializer": {"config": {}, "class_name": "Zeros"}, "trainable": true, "activity_regularizer": null, "kernel_regularizer": {"config": {"l1": 0.0, "l2": 9.999999747378752e-05}, "class_name": "L1L2"}, "kernel_initializer": {"config": {"scale": 1.0, "seed": null, "distribution": "uniform", "mode": "fan_avg"}, "class_name": "VarianceScaling"}, "kernel_size": [1, 1], "use_bias": false, "bias_regularizer": null}, "class_name": "Conv2D", "inbound_nodes": [[["activation_26", 0, 0, {}]]]}, {"name": "batch_normalization_28", "config": {"scale": true, "moving_mean_initializer": {"config": {}, "class_name": "Zeros"}, "center": true, "name": "batch_normalization_28", "gamma_regularizer": null, "beta_constraint": null, "beta_regularizer": null, "moving_variance_initializer": {"config": {}, "class_name": "Ones"}, "trainable": true, "gamma_initializer": {"config": {}, "class_name": "Ones"}, "momentum": 0.9, "gamma_constraint": null, "axis": -1, "beta_initializer": {"config": {}, "class_name": "Zeros"}, "epsilon": 2e-05}, "class_name": "BatchNormalization", "inbound_nodes": [[["conv2d_29", 0, 0, {}]]]}, {"name": "activation_27", "config": {"name": "activation_27", "activation": "relu", "trainable": true}, "class_name": "Activation", "inbound_nodes": [[["batch_normalization_28", 0, 0, {}]]]}, {"name": "conv2d_30", "config": {"data_format": "channels_last", "dilation_rate": [1, 1], "name": "conv2d_30", "bias_constraint": null, "filters": 128, "padding": "same", "activation": "linear", "strides": [1, 1], "kernel_constraint": null, "bias_initializer": {"config": {}, "class_name": "Zeros"}, "trainable": true, "activity_regularizer": null, "kernel_regularizer": {"config": {"l1": 0.0, "l2": 9.999999747378752e-05}, "class_name": "L1L2"}, "kernel_initializer": {"config": {"scale": 1.0, "seed": null, "distribution": "uniform", "mode": "fan_avg"}, "class_name": "VarianceScaling"}, "kernel_size": [3, 3], "use_bias": false, "bias_regularizer": null}, "class_name": "Conv2D", "inbound_nodes": [[["activation_27", 0, 0, {}]]]}, {"name": "batch_normalization_29", "config": {"scale": true, "moving_mean_initializer": {"config": {}, "class_name": "Zeros"}, "center": true, "name": "batch_normalization_29", "gamma_regularizer": null, "beta_constraint": null, "beta_regularizer": null, "moving_variance_initializer": {"config": {}, "class_name": "Ones"}, "trainable": true, "gamma_initializer": {"config": {}, "class_name": "Ones"}, "momentum": 0.9, "gamma_constraint": null, "axis": -1, "beta_initializer": {"config": {}, "class_name": "Zeros"}, "epsilon": 2e-05}, "class_name": "BatchNormalization", "inbound_nodes": [[["conv2d_30", 0, 0, {}]]]}, {"name": "activation_28", "config": {"name": "activation_28", "activation": "relu", "trainable": true}, "class_name": "Activation", "inbound_nodes": [[["batch_normalization_29", 0, 0, {}]]]}, {"name": "conv2d_31", "config": {"data_format": "channels_last", "dilation_rate": [1, 1], "name": "conv2d_31", "bias_constraint": null, "filters": 512, "padding": "valid", "activation": "linear", "strides": [1, 1], "kernel_constraint": null, "bias_initializer": {"config": {}, "class_name": "Zeros"}, "trainable": true, "activity_regularizer": null, "kernel_regularizer": {"config": {"l1": 0.0, "l2": 9.999999747378752e-05}, "class_name": "L1L2"}, "kernel_initializer": {"config": {"scale": 1.0, "seed": null, "distribution": "uniform", "mode": "fan_avg"}, "class_name": "VarianceScaling"}, "kernel_size": [1, 1], "use_bias": false, "bias_regularizer": null}, "class_name": "Conv2D", "inbound_nodes": [[["activation_28", 0, 0, {}]]]}, {"name": "add_9", "config": {"name": "add_9", "trainable": true}, "class_name": "Add", "inbound_nodes": [[["conv2d_31", 0, 0, {}], ["add_8", 0, 0, {}]]]}, {"name": "batch_normalization_30", "config": {"scale": true, "moving_mean_initializer": {"config": {}, "class_name": "Zeros"}, "center": true, "name": "batch_normalization_30", "gamma_regularizer": null, "beta_constraint": null, "beta_regularizer": null, "moving_variance_initializer": {"config": {}, "class_name": "Ones"}, "trainable": true, "gamma_initializer": {"config": {}, "class_name": "Ones"}, "momentum": 0.9, "gamma_constraint": null, "axis": -1, "beta_initializer": {"config": {}, "class_name": "Zeros"}, "epsilon": 2e-05}, "class_name": "BatchNormalization", "inbound_nodes": [[["add_9", 0, 0, {}]]]}, {"name": "activation_29", "config": {"name": "activation_29", "activation": "relu", "trainable": true}, "class_name": "Activation", "inbound_nodes": [[["batch_normalization_30", 0, 0, {}]]]}, {"name": "conv2d_32", "config": {"data_format": "channels_last", "dilation_rate": [1, 1], "name": "conv2d_32", "bias_constraint": null, "filters": 128, "padding": "valid", "activation": "linear", "strides": [1, 1], "kernel_constraint": null, "bias_initializer": {"config": {}, "class_name": "Zeros"}, "trainable": true, "activity_regularizer": null, "kernel_regularizer": {"config": {"l1": 0.0, "l2": 9.999999747378752e-05}, "class_name": "L1L2"}, "kernel_initializer": {"config": {"scale": 1.0, "seed": null, "distribution": "uniform", "mode": "fan_avg"}, "class_name": "VarianceScaling"}, "kernel_size": [1, 1], "use_bias": false, "bias_regularizer": null}, "class_name": "Conv2D", "inbound_nodes": [[["activation_29", 0, 0, {}]]]}, {"name": "batch_normalization_31", "config": {"scale": true, "moving_mean_initializer": {"config": {}, "class_name": "Zeros"}, "center": true, "name": "batch_normalization_31", "gamma_regularizer": null, "beta_constraint": null, "beta_regularizer": null, "moving_variance_initializer": {"config": {}, "class_name": "Ones"}, "trainable": true, "gamma_initializer": {"config": {}, "class_name": "Ones"}, "momentum": 0.9, "gamma_constraint": null, "axis": -1, "beta_initializer": {"config": {}, "class_name": "Zeros"}, "epsilon": 2e-05}, "class_name": "BatchNormalization", "inbound_nodes": [[["conv2d_32", 0, 0, {}]]]}, {"name": "activation_30", "config": {"name": "activation_30", "activation": "relu", "trainable": true}, "class_name": "Activation", "inbound_nodes": [[["batch_normalization_31", 0, 0, {}]]]}, {"name": "conv2d_33", "config": {"data_format": "channels_last", "dilation_rate": [1, 1], "name": "conv2d_33", "bias_constraint": null, "filters": 128, "padding": "same", "activation": "linear", "strides": [1, 1], "kernel_constraint": null, "bias_initializer": {"config": {}, "class_name": "Zeros"}, "trainable": true, "activity_regularizer": null, "kernel_regularizer": {"config": {"l1": 0.0, "l2": 9.999999747378752e-05}, "class_name": "L1L2"}, "kernel_initializer": {"config": {"scale": 1.0, "seed": null, "distribution": "uniform", "mode": "fan_avg"}, "class_name": "VarianceScaling"}, "kernel_size": [3, 3], "use_bias": false, "bias_regularizer": null}, "class_name": "Conv2D", "inbound_nodes": [[["activation_30", 0, 0, {}]]]}, {"name": "batch_normalization_32", "config": {"scale": true, "moving_mean_initializer": {"config": {}, "class_name": "Zeros"}, "center": true, "name": "batch_normalization_32", "gamma_regularizer": null, "beta_constraint": null, "beta_regularizer": null, "moving_variance_initializer": {"config": {}, "class_name": "Ones"}, "trainable": true, "gamma_initializer": {"config": {}, "class_name": "Ones"}, "momentum": 0.9, "gamma_constraint": null, "axis": -1, "beta_initializer": {"config": {}, "class_name": "Zeros"}, "epsilon": 2e-05}, "class_name": "BatchNormalization", "inbound_nodes": [[["conv2d_33", 0, 0, {}]]]}, {"name": "activation_31", "config": {"name": "activation_31", "activation": "relu", "trainable": true}, "class_name": "Activation", "inbound_nodes": [[["batch_normalization_32", 0, 0, {}]]]}, {"name": "conv2d_34", "config": {"data_format": "channels_last", "dilation_rate": [1, 1], "name": "conv2d_34", "bias_constraint": null, "filters": 512, "padding": "valid", "activation": "linear", "strides": [1, 1], "kernel_constraint": null, "bias_initializer": {"config": {}, "class_name": "Zeros"}, "trainable": true, "activity_regularizer": null, "kernel_regularizer": {"config": {"l1": 0.0, "l2": 9.999999747378752e-05}, "class_name": "L1L2"}, "kernel_initializer": {"config": {"scale": 1.0, "seed": null, "distribution": "uniform", "mode": "fan_avg"}, "class_name": "VarianceScaling"}, "kernel_size": [1, 1], "use_bias": false, "bias_regularizer": null}, "class_name": "Conv2D", "inbound_nodes": [[["activation_31", 0, 0, {}]]]}, {"name": "add_10", "config": {"name": "add_10", "trainable": true}, "class_name": "Add", "inbound_nodes": [[["conv2d_34", 0, 0, {}], ["add_9", 0, 0, {}]]]}, {"name": "batch_normalization_33", "config": {"scale": true, "moving_mean_initializer": {"config": {}, "class_name": "Zeros"}, "center": true, "name": "batch_normalization_33", "gamma_regularizer": null, "beta_constraint": null, "beta_regularizer": null, "moving_variance_initializer": {"config": {}, "class_name": "Ones"}, "trainable": true, "gamma_initializer": {"config": {}, "class_name": "Ones"}, "momentum": 0.9, "gamma_constraint": null, "axis": -1, "beta_initializer": {"config": {}, "class_name": "Zeros"}, "epsilon": 2e-05}, "class_name": "BatchNormalization", "inbound_nodes": [[["add_10", 0, 0, {}]]]}, {"name": "activation_32", "config": {"name": "activation_32", "activation": "relu", "trainable": true}, "class_name": "Activation", "inbound_nodes": [[["batch_normalization_33", 0, 0, {}]]]}, {"name": "conv2d_35", "config": {"data_format": "channels_last", "dilation_rate": [1, 1], "name": "conv2d_35", "bias_constraint": null, "filters": 128, "padding": "valid", "activation": "linear", "strides": [1, 1], "kernel_constraint": null, "bias_initializer": {"config": {}, "class_name": "Zeros"}, "trainable": true, "activity_regularizer": null, "kernel_regularizer": {"config": {"l1": 0.0, "l2": 9.999999747378752e-05}, "class_name": "L1L2"}, "kernel_initializer": {"config": {"scale": 1.0, "seed": null, "distribution": "uniform", "mode": "fan_avg"}, "class_name": "VarianceScaling"}, "kernel_size": [1, 1], "use_bias": false, "bias_regularizer": null}, "class_name": "Conv2D", "inbound_nodes": [[["activation_32", 0, 0, {}]]]}, {"name": "batch_normalization_34", "config": {"scale": true, "moving_mean_initializer": {"config": {}, "class_name": "Zeros"}, "center": true, "name": "batch_normalization_34", "gamma_regularizer": null, "beta_constraint": null, "beta_regularizer": null, "moving_variance_initializer": {"config": {}, "class_name": "Ones"}, "trainable": true, "gamma_initializer": {"config": {}, "class_name": "Ones"}, "momentum": 0.9, "gamma_constraint": null, "axis": -1, "beta_initializer": {"config": {}, "class_name": "Zeros"}, "epsilon": 2e-05}, "class_name": "BatchNormalization", "inbound_nodes": [[["conv2d_35", 0, 0, {}]]]}, {"name": "activation_33", "config": {"name": "activation_33", "activation": "relu", "trainable": true}, "class_name": "Activation", "inbound_nodes": [[["batch_normalization_34", 0, 0, {}]]]}, {"name": "conv2d_36", "config": {"data_format": "channels_last", "dilation_rate": [1, 1], "name": "conv2d_36", "bias_constraint": null, "filters": 128, "padding": "same", "activation": "linear", "strides": [1, 1], "kernel_constraint": null, "bias_initializer": {"config": {}, "class_name": "Zeros"}, "trainable": true, "activity_regularizer": null, "kernel_regularizer": {"config": {"l1": 0.0, "l2": 9.999999747378752e-05}, "class_name": "L1L2"}, "kernel_initializer": {"config": {"scale": 1.0, "seed": null, "distribution": "uniform", "mode": "fan_avg"}, "class_name": "VarianceScaling"}, "kernel_size": [3, 3], "use_bias": false, "bias_regularizer": null}, "class_name": "Conv2D", "inbound_nodes": [[["activation_33", 0, 0, {}]]]}, {"name": "batch_normalization_35", "config": {"scale": true, "moving_mean_initializer": {"config": {}, "class_name": "Zeros"}, "center": true, "name": "batch_normalization_35", "gamma_regularizer": null, "beta_constraint": null, "beta_regularizer": null, "moving_variance_initializer": {"config": {}, "class_name": "Ones"}, "trainable": true, "gamma_initializer": {"config": {}, "class_name": "Ones"}, "momentum": 0.9, "gamma_constraint": null, "axis": -1, "beta_initializer": {"config": {}, "class_name": "Zeros"}, "epsilon": 2e-05}, "class_name": "BatchNormalization", "inbound_nodes": [[["conv2d_36", 0, 0, {}]]]}, {"name": "activation_34", "config": {"name": "activation_34", "activation": "relu", "trainable": true}, "class_name": "Activation", "inbound_nodes": [[["batch_normalization_35", 0, 0, {}]]]}, {"name": "conv2d_37", "config": {"data_format": "channels_last", "dilation_rate": [1, 1], "name": "conv2d_37", "bias_constraint": null, "filters": 512, "padding": "valid", "activation": "linear", "strides": [1, 1], "kernel_constraint": null, "bias_initializer": {"config": {}, "class_name": "Zeros"}, "trainable": true, "activity_regularizer": null, "kernel_regularizer": {"config": {"l1": 0.0, "l2": 9.999999747378752e-05}, "class_name": "L1L2"}, "kernel_initializer": {"config": {"scale": 1.0, "seed": null, "distribution": "uniform", "mode": "fan_avg"}, "class_name": "VarianceScaling"}, "kernel_size": [1, 1], "use_bias": false, "bias_regularizer": null}, "class_name": "Conv2D", "inbound_nodes": [[["activation_34", 0, 0, {}]]]}, {"name": "add_11", "config": {"name": "add_11", "trainable": true}, "class_name": "Add", "inbound_nodes": [[["conv2d_37", 0, 0, {}], ["add_10", 0, 0, {}]]]}, {"name": "batch_normalization_36", "config": {"scale": true, "moving_mean_initializer": {"config": {}, "class_name": "Zeros"}, "center": true, "name": "batch_normalization_36", "gamma_regularizer": null, "beta_constraint": null, "beta_regularizer": null, "moving_variance_initializer": {"config": {}, "class_name": "Ones"}, "trainable": true, "gamma_initializer": {"config": {}, "class_name": "Ones"}, "momentum": 0.9, "gamma_constraint": null, "axis": -1, "beta_initializer": {"config": {}, "class_name": "Zeros"}, "epsilon": 2e-05}, "class_name": "BatchNormalization", "inbound_nodes": [[["add_11", 0, 0, {}]]]}, {"name": "activation_35", "config": {"name": "activation_35", "activation": "relu", "trainable": true}, "class_name": "Activation", "inbound_nodes": [[["batch_normalization_36", 0, 0, {}]]]}, {"name": "conv2d_38", "config": {"data_format": "channels_last", "dilation_rate": [1, 1], "name": "conv2d_38", "bias_constraint": null, "filters": 128, "padding": "valid", "activation": "linear", "strides": [1, 1], "kernel_constraint": null, "bias_initializer": {"config": {}, "class_name": "Zeros"}, "trainable": true, "activity_regularizer": null, "kernel_regularizer": {"config": {"l1": 0.0, "l2": 9.999999747378752e-05}, "class_name": "L1L2"}, "kernel_initializer": {"config": {"scale": 1.0, "seed": null, "distribution": "uniform", "mode": "fan_avg"}, "class_name": "VarianceScaling"}, "kernel_size": [1, 1], "use_bias": false, "bias_regularizer": null}, "class_name": "Conv2D", "inbound_nodes": [[["activation_35", 0, 0, {}]]]}, {"name": "batch_normalization_37", "config": {"scale": true, "moving_mean_initializer": {"config": {}, "class_name": "Zeros"}, "center": true, "name": "batch_normalization_37", "gamma_regularizer": null, "beta_constraint": null, "beta_regularizer": null, "moving_variance_initializer": {"config": {}, "class_name": "Ones"}, "trainable": true, "gamma_initializer": {"config": {}, "class_name": "Ones"}, "momentum": 0.9, "gamma_constraint": null, "axis": -1, "beta_initializer": {"config": {}, "class_name": "Zeros"}, "epsilon": 2e-05}, "class_name": "BatchNormalization", "inbound_nodes": [[["conv2d_38", 0, 0, {}]]]}, {"name": "activation_36", "config": {"name": "activation_36", "activation": "relu", "trainable": true}, "class_name": "Activation", "inbound_nodes": [[["batch_normalization_37", 0, 0, {}]]]}, {"name": "conv2d_39", "config": {"data_format": "channels_last", "dilation_rate": [1, 1], "name": "conv2d_39", "bias_constraint": null, "filters": 128, "padding": "same", "activation": "linear", "strides": [1, 1], "kernel_constraint": null, "bias_initializer": {"config": {}, "class_name": "Zeros"}, "trainable": true, "activity_regularizer": null, "kernel_regularizer": {"config": {"l1": 0.0, "l2": 9.999999747378752e-05}, "class_name": "L1L2"}, "kernel_initializer": {"config": {"scale": 1.0, "seed": null, "distribution": "uniform", "mode": "fan_avg"}, "class_name": "VarianceScaling"}, "kernel_size": [3, 3], "use_bias": false, "bias_regularizer": null}, "class_name": "Conv2D", "inbound_nodes": [[["activation_36", 0, 0, {}]]]}, {"name": "batch_normalization_38", "config": {"scale": true, "moving_mean_initializer": {"config": {}, "class_name": "Zeros"}, "center": true, "name": "batch_normalization_38", "gamma_regularizer": null, "beta_constraint": null, "beta_regularizer": null, "moving_variance_initializer": {"config": {}, "class_name": "Ones"}, "trainable": true, "gamma_initializer": {"config": {}, "class_name": "Ones"}, "momentum": 0.9, "gamma_constraint": null, "axis": -1, "beta_initializer": {"config": {}, "class_name": "Zeros"}, "epsilon": 2e-05}, "class_name": "BatchNormalization", "inbound_nodes": [[["conv2d_39", 0, 0, {}]]]}, {"name": "activation_37", "config": {"name": "activation_37", "activation": "relu", "trainable": true}, "class_name": "Activation", "inbound_nodes": [[["batch_normalization_38", 0, 0, {}]]]}, {"name": "conv2d_40", "config": {"data_format": "channels_last", "dilation_rate": [1, 1], "name": "conv2d_40", "bias_constraint": null, "filters": 512, "padding": "valid", "activation": "linear", "strides": [1, 1], "kernel_constraint": null, "bias_initializer": {"config": {}, "class_name": "Zeros"}, "trainable": true, "activity_regularizer": null, "kernel_regularizer": {"config": {"l1": 0.0, "l2": 9.999999747378752e-05}, "class_name": "L1L2"}, "kernel_initializer": {"config": {"scale": 1.0, "seed": null, "distribution": "uniform", "mode": "fan_avg"}, "class_name": "VarianceScaling"}, "kernel_size": [1, 1], "use_bias": false, "bias_regularizer": null}, "class_name": "Conv2D", "inbound_nodes": [[["activation_37", 0, 0, {}]]]}, {"name": "add_12", "config": {"name": "add_12", "trainable": true}, "class_name": "Add", "inbound_nodes": [[["conv2d_40", 0, 0, {}], ["add_11", 0, 0, {}]]]}, {"name": "batch_normalization_39", "config": {"scale": true, "moving_mean_initializer": {"config": {}, "class_name": "Zeros"}, "center": true, "name": "batch_normalization_39", "gamma_regularizer": null, "beta_constraint": null, "beta_regularizer": null, "moving_variance_initializer": {"config": {}, "class_name": "Ones"}, "trainable": true, "gamma_initializer": {"config": {}, "class_name": "Ones"}, "momentum": 0.9, "gamma_constraint": null, "axis": -1, "beta_initializer": {"config": {}, "class_name": "Zeros"}, "epsilon": 2e-05}, "class_name": "BatchNormalization", "inbound_nodes": [[["add_12", 0, 0, {}]]]}, {"name": "activation_38", "config": {"name": "activation_38", "activation": "relu", "trainable": true}, "class_name": "Activation", "inbound_nodes": [[["batch_normalization_39", 0, 0, {}]]]}, {"name": "conv2d_41", "config": {"data_format": "channels_last", "dilation_rate": [1, 1], "name": "conv2d_41", "bias_constraint": null, "filters": 128, "padding": "valid", "activation": "linear", "strides": [1, 1], "kernel_constraint": null, "bias_initializer": {"config": {}, "class_name": "Zeros"}, "trainable": true, "activity_regularizer": null, "kernel_regularizer": {"config": {"l1": 0.0, "l2": 9.999999747378752e-05}, "class_name": "L1L2"}, "kernel_initializer": {"config": {"scale": 1.0, "seed": null, "distribution": "uniform", "mode": "fan_avg"}, "class_name": "VarianceScaling"}, "kernel_size": [1, 1], "use_bias": false, "bias_regularizer": null}, "class_name": "Conv2D", "inbound_nodes": [[["activation_38", 0, 0, {}]]]}, {"name": "batch_normalization_40", "config": {"scale": true, "moving_mean_initializer": {"config": {}, "class_name": "Zeros"}, "center": true, "name": "batch_normalization_40", "gamma_regularizer": null, "beta_constraint": null, "beta_regularizer": null, "moving_variance_initializer": {"config": {}, "class_name": "Ones"}, "trainable": true, "gamma_initializer": {"config": {}, "class_name": "Ones"}, "momentum": 0.9, "gamma_constraint": null, "axis": -1, "beta_initializer": {"config": {}, "class_name": "Zeros"}, "epsilon": 2e-05}, "class_name": "BatchNormalization", "inbound_nodes": [[["conv2d_41", 0, 0, {}]]]}, {"name": "activation_39", "config": {"name": "activation_39", "activation": "relu", "trainable": true}, "class_name": "Activation", "inbound_nodes": [[["batch_normalization_40", 0, 0, {}]]]}, {"name": "conv2d_42", "config": {"data_format": "channels_last", "dilation_rate": [1, 1], "name": "conv2d_42", "bias_constraint": null, "filters": 128, "padding": "same", "activation": "linear", "strides": [1, 1], "kernel_constraint": null, "bias_initializer": {"config": {}, "class_name": "Zeros"}, "trainable": true, "activity_regularizer": null, "kernel_regularizer": {"config": {"l1": 0.0, "l2": 9.999999747378752e-05}, "class_name": "L1L2"}, "kernel_initializer": {"config": {"scale": 1.0, "seed": null, "distribution": "uniform", "mode": "fan_avg"}, "class_name": "VarianceScaling"}, "kernel_size": [3, 3], "use_bias": false, "bias_regularizer": null}, "class_name": "Conv2D", "inbound_nodes": [[["activation_39", 0, 0, {}]]]}, {"name": "batch_normalization_41", "config": {"scale": true, "moving_mean_initializer": {"config": {}, "class_name": "Zeros"}, "center": true, "name": "batch_normalization_41", "gamma_regularizer": null, "beta_constraint": null, "beta_regularizer": null, "moving_variance_initializer": {"config": {}, "class_name": "Ones"}, "trainable": true, "gamma_initializer": {"config": {}, "class_name": "Ones"}, "momentum": 0.9, "gamma_constraint": null, "axis": -1, "beta_initializer": {"config": {}, "class_name": "Zeros"}, "epsilon": 2e-05}, "class_name": "BatchNormalization", "inbound_nodes": [[["conv2d_42", 0, 0, {}]]]}, {"name": "activation_40", "config": {"name": "activation_40", "activation": "relu", "trainable": true}, "class_name": "Activation", "inbound_nodes": [[["batch_normalization_41", 0, 0, {}]]]}, {"name": "conv2d_43", "config": {"data_format": "channels_last", "dilation_rate": [1, 1], "name": "conv2d_43", "bias_constraint": null, "filters": 512, "padding": "valid", "activation": "linear", "strides": [1, 1], "kernel_constraint": null, "bias_initializer": {"config": {}, "class_name": "Zeros"}, "trainable": true, "activity_regularizer": null, "kernel_regularizer": {"config": {"l1": 0.0, "l2": 9.999999747378752e-05}, "class_name": "L1L2"}, "kernel_initializer": {"config": {"scale": 1.0, "seed": null, "distribution": "uniform", "mode": "fan_avg"}, "class_name": "VarianceScaling"}, "kernel_size": [1, 1], "use_bias": false, "bias_regularizer": null}, "class_name": "Conv2D", "inbound_nodes": [[["activation_40", 0, 0, {}]]]}, {"name": "add_13", "config": {"name": "add_13", "trainable": true}, "class_name": "Add", "inbound_nodes": [[["conv2d_43", 0, 0, {}], ["add_12", 0, 0, {}]]]}, {"name": "batch_normalization_42", "config": {"scale": true, "moving_mean_initializer": {"config": {}, "class_name": "Zeros"}, "center": true, "name": "batch_normalization_42", "gamma_regularizer": null, "beta_constraint": null, "beta_regularizer": null, "moving_variance_initializer": {"config": {}, "class_name": "Ones"}, "trainable": true, "gamma_initializer": {"config": {}, "class_name": "Ones"}, "momentum": 0.9, "gamma_constraint": null, "axis": -1, "beta_initializer": {"config": {}, "class_name": "Zeros"}, "epsilon": 2e-05}, "class_name": "BatchNormalization", "inbound_nodes": [[["add_13", 0, 0, {}]]]}, {"name": "activation_41", "config": {"name": "activation_41", "activation": "relu", "trainable": true}, "class_name": "Activation", "inbound_nodes": [[["batch_normalization_42", 0, 0, {}]]]}, {"name": "average_pooling2d_1", "config": {"strides": [8, 8], "data_format": "channels_last", "pool_size": [8, 8], "name": "average_pooling2d_1", "trainable": true, "padding": "valid"}, "class_name": "AveragePooling2D", "inbound_nodes": [[["activation_41", 0, 0, {}]]]}, {"name": "flatten_1", "config": {"name": "flatten_1", "data_format": "channels_last", "trainable": true}, "class_name": "Flatten", "inbound_nodes": [[["average_pooling2d_1", 0, 0, {}]]]}, {"name": "dense_1", "config": {"bias_regularizer": null, "name": "dense_1", "trainable": true, "bias_constraint": null, "activation": "linear", "kernel_constraint": null, "bias_initializer": {"config": {}, "class_name": "Zeros"}, "units": 2, "activity_regularizer": null, "use_bias": true, "kernel_initializer": {"config": {"scale": 1.0, "seed": null, "distribution": "uniform", "mode": "fan_avg"}, "class_name": "VarianceScaling"}, "kernel_regularizer": {"config": {"l1": 0.0, "l2": 0.0005000000237487257}, "class_name": "L1L2"}}, "class_name": "Dense", "inbound_nodes": [[["flatten_1", 0, 0, {}]]]}, {"name": "activation_42", "config": {"name": "activation_42", "activation": "softmax", "trainable": true}, "class_name": "Activation", "inbound_nodes": [[["dense_1", 0, 0, {}]]]}], "output_layers": [["activation_42", 0, 0]], "input_layers": [["input_1", 0, 0]]}, "class_name": "Model", "keras_version": "2.2.4"}